CNN_best.pth (torch, 5607 bytes, 10 tensors)

conv.0.weight f4 [3, 3, 3, 3]
-0.09156268 -0.17397042 -0.4704281 -0.22554165 0.024914272 -0.12907045 -0.24900173 -0.27680093
-0.5579382 -0.05823557 -0.2144985 0.03881074 0.008246324 0.37150803 0.35135904 0.050110795
0.20310093 0.1234922 -0.12224803 -0.104134984 0.0844868 0.12638077 0.65841985 0.3261462
0.08890721 0.84060705 0.60152227 0.07669561 0.054684706 -0.9601819 0.55445254 0.46378046
-0.5580555 0.049707323 0.23485672 -0.072074674 0.06966847 0.011736802 -0.31020847 -0.20213434
0.46720183 0.1750717 -0.13566653 0.07675332 0.25406605 0.097134575 0.05509854 -0.2682246
0.20099503 0.18977757 -0.15398897 0.43559244 0.18553506 0.20683798 -0.018893596 0.08547324
0.04122751 -0.18777153 -0.17480274 -0.017040163 0.023514887 0.027395807 0.07481108 0.014372219
-0.060312122 -0.07142697 -0.008477564 -0.028952876 0.06335331 0.06431732 -0.060876388 -0.098309964
0.069301 -0.10272448 0.137132 -0.04231094 0.065098844 -0.020164818 -0.07478747 0.011888302
0.059413318
00000000: 3785 bbbd 4d25 32be f4db f0be 64f4 66be
00000010: 0419 cc3c 0b2b 04be 4ffa 7ebe dab8 8dbe
00000020: 0ad5 0ebf 6c88 6ebd 7fa5 5bbe 03f8 1e3d
00000030: 971b 073c 4d36 be3e 55e5 b33e fa40 4d3d
00000040: b1f9 4f3e 7be9 fc3d 2d5d fabd b944 d5bd
00000050: 6a07 ad3d f669 013e 348e 283f a2fc a63e
00000060: fc14 b63d 0632 573f 5dfd 193f 9712 9d3d
00000070: 12fd 5f3d 7bce 75bf 9af0 0d3f a274 ed3e
00000080: badc 0ebf e899 4b3d 487e 703e e39b 93bd
00000090: 58ae 8e3d b74b 403c a5d3 9ebe 4efc 4ebe
000000a0: 1435 ef3e ff45 333e 2bec 0abe d830 9d3d
000000b0: f214 823e 7eee c63d 02af 613d bc54 89be
000000c0: a4d1 4d3e 0d55 423e 49af 1dbe f905 df3e
000000d0: e7fc 3d3e 56cd 533e bec6 9abc 980c af3d
000000e0: 2dde 283d 2e47 40be 7dff 32be d097 8bbc
000000f0: 4ba2 c03c 2c6d e03c 8d36 993d 7579 6b3c
00000100: d809 77bd 4e48 92bd 7be5 0abc 952e edbc
00000110: 61bf 813d cdb8 833d 8559 79bd bc56 c9bd
00000120: afed 8d3d 3661 d2bd 556c 0c3e 3c4e 2dbd
00000130: 8b52 853d b030 a5bc 2c2a 99bd 27c7 423c
00000140: 615b 733d

conv.0.bias f4 [3]
-0.35214046 0.028951745 -0.6263265
00000000: c14b b4be 362c ed3c ef56 20bf

conv_block.0.0.weight f4 [3, 3, 3, 3]
-0.09156268 -0.17397042 -0.4704281 -0.22554165 0.024914272 -0.12907045 -0.24900173 -0.27680093
-0.5579382 -0.05823557 -0.2144985 0.03881074 0.008246324 0.37150803 0.35135904 0.050110795
0.20310093 0.1234922 -0.12224803 -0.104134984 0.0844868 0.12638077 0.65841985 0.3261462
0.08890721 0.84060705 0.60152227 0.07669561 0.054684706 -0.9601819 0.55445254 0.46378046
-0.5580555 0.049707323 0.23485672 -0.072074674 0.06966847 0.011736802 -0.31020847 -0.20213434
0.46720183 0.1750717 -0.13566653 0.07675332 0.25406605 0.097134575 0.05509854 -0.2682246
0.20099503 0.18977757 -0.15398897 0.43559244 0.18553506 0.20683798 -0.018893596 0.08547324
0.04122751 -0.18777153 -0.17480274 -0.017040163 0.023514887 0.027395807 0.07481108 0.014372219
-0.060312122 -0.07142697 -0.008477564 -0.028952876 0.06335331 0.06431732 -0.060876388 -0.098309964
0.069301 -0.10272448 0.137132 -0.04231094 0.065098844 -0.020164818 -0.07478747 0.011888302
0.059413318
00000000: 3785 bbbd 4d25 32be f4db f0be 64f4 66be
00000010: 0419 cc3c 0b2b 04be 4ffa 7ebe dab8 8dbe
00000020: 0ad5 0ebf 6c88 6ebd 7fa5 5bbe 03f8 1e3d
00000030: 971b 073c 4d36 be3e 55e5 b33e fa40 4d3d
00000040: b1f9 4f3e 7be9 fc3d 2d5d fabd b944 d5bd
00000050: 6a07 ad3d f669 013e 348e 283f a2fc a63e
00000060: fc14 b63d 0632 573f 5dfd 193f 9712 9d3d
00000070: 12fd 5f3d 7bce 75bf 9af0 0d3f a274 ed3e
00000080: badc 0ebf e899 4b3d 487e 703e e39b 93bd
00000090: 58ae 8e3d b74b 403c a5d3 9ebe 4efc 4ebe
000000a0: 1435 ef3e ff45 333e 2bec 0abe d830 9d3d
000000b0: f214 823e 7eee c63d 02af 613d bc54 89be
000000c0: a4d1 4d3e 0d55 423e 49af 1dbe f905 df3e
000000d0: e7fc 3d3e 56cd 533e bec6 9abc 980c af3d
000000e0: 2dde 283d 2e47 40be 7dff 32be d097 8bbc
000000f0: 4ba2 c03c 2c6d e03c 8d36 993d 7579 6b3c
00000100: d809 77bd 4e48 92bd 7be5 0abc 952e edbc
00000110: 61bf 813d cdb8 833d 8559 79bd bc56 c9bd
00000120: afed 8d3d 3661 d2bd 556c 0c3e 3c4e 2dbd
00000130: 8b52 853d b030 a5bc 2c2a 99bd 27c7 423c
00000140: 615b 733d

conv_block.0.0.bias f4 [3]
-0.35214046 0.028951745 -0.6263265
00000000: c14b b4be 362c ed3c ef56 20bf

conv_block.1.0.weight f4 [3, 3, 3, 3]
-0.09156268 -0.17397042 -0.4704281 -0.22554165 0.024914272 -0.12907045 -0.24900173 -0.27680093
-0.5579382 -0.05823557 -0.2144985 0.03881074 0.008246324 0.37150803 0.35135904 0.050110795
0.20310093 0.1234922 -0.12224803 -0.104134984 0.0844868 0.12638077 0.65841985 0.3261462
0.08890721 0.84060705 0.60152227 0.07669561 0.054684706 -0.9601819 0.55445254 0.46378046
-0.5580555 0.049707323 0.23485672 -0.072074674 0.06966847 0.011736802 -0.31020847 -0.20213434
0.46720183 0.1750717 -0.13566653 0.07675332 0.25406605 0.097134575 0.05509854 -0.2682246
0.20099503 0.18977757 -0.15398897 0.43559244 0.18553506 0.20683798 -0.018893596 0.08547324
0.04122751 -0.18777153 -0.17480274 -0.017040163 0.023514887 0.027395807 0.07481108 0.014372219
-0.060312122 -0.07142697 -0.008477564 -0.028952876 0.06335331 0.06431732 -0.060876388 -0.098309964
0.069301 -0.10272448 0.137132 -0.04231094 0.065098844 -0.020164818 -0.07478747 0.011888302
0.059413318
00000000: 3785 bbbd 4d25 32be f4db f0be 64f4 66be
00000010: 0419 cc3c 0b2b 04be 4ffa 7ebe dab8 8dbe
00000020: 0ad5 0ebf 6c88 6ebd 7fa5 5bbe 03f8 1e3d
00000030: 971b 073c 4d36 be3e 55e5 b33e fa40 4d3d
00000040: b1f9 4f3e 7be9 fc3d 2d5d fabd b944 d5bd
00000050: 6a07 ad3d f669 013e 348e 283f a2fc a63e
00000060: fc14 b63d 0632 573f 5dfd 193f 9712 9d3d
00000070: 12fd 5f3d 7bce 75bf 9af0 0d3f a274 ed3e
00000080: badc 0ebf e899 4b3d 487e 703e e39b 93bd
00000090: 58ae 8e3d b74b 403c a5d3 9ebe 4efc 4ebe
000000a0: 1435 ef3e ff45 333e 2bec 0abe d830 9d3d
000000b0: f214 823e 7eee c63d 02af 613d bc54 89be
000000c0: a4d1 4d3e 0d55 423e 49af 1dbe f905 df3e
000000d0: e7fc 3d3e 56cd 533e bec6 9abc 980c af3d
000000e0: 2dde 283d 2e47 40be 7dff 32be d097 8bbc
000000f0: 4ba2 c03c 2c6d e03c 8d36 993d 7579 6b3c
00000100: d809 77bd 4e48 92bd 7be5 0abc 952e edbc
00000110: 61bf 813d cdb8 833d 8559 79bd bc56 c9bd
00000120: afed 8d3d 3661 d2bd 556c 0c3e 3c4e 2dbd
00000130: 8b52 853d b030 a5bc 2c2a 99bd 27c7 423c
00000140: 615b 733d

conv_block.1.0.bias f4 [3]
-0.35214046 0.028951745 -0.6263265
00000000: c14b b4be 362c ed3c ef56 20bf

conv_block.2.0.weight f4 [3, 3, 3, 3]
-0.09156268 -0.17397042 -0.4704281 -0.22554165 0.024914272 -0.12907045 -0.24900173 -0.27680093
-0.5579382 -0.05823557 -0.2144985 0.03881074 0.008246324 0.37150803 0.35135904 0.050110795
0.20310093 0.1234922 -0.12224803 -0.104134984 0.0844868 0.12638077 0.65841985 0.3261462
0.08890721 0.84060705 0.60152227 0.07669561 0.054684706 -0.9601819 0.55445254 0.46378046
-0.5580555 0.049707323 0.23485672 -0.072074674 0.06966847 0.011736802 -0.31020847 -0.20213434
0.46720183 0.1750717 -0.13566653 0.07675332 0.25406605 0.097134575 0.05509854 -0.2682246
0.20099503 0.18977757 -0.15398897 0.43559244 0.18553506 0.20683798 -0.018893596 0.08547324
0.04122751 -0.18777153 -0.17480274 -0.017040163 0.023514887 0.027395807 0.07481108 0.014372219
-0.060312122 -0.07142697 -0.008477564 -0.028952876 0.06335331 0.06431732 -0.060876388 -0.098309964
0.069301 -0.10272448 0.137132 -0.04231094 0.065098844 -0.020164818 -0.07478747 0.011888302
0.059413318
00000000: 3785 bbbd 4d25 32be f4db f0be 64f4 66be
00000010: 0419 cc3c 0b2b 04be 4ffa 7ebe dab8 8dbe
00000020: 0ad5 0ebf 6c88 6ebd 7fa5 5bbe 03f8 1e3d
00000030: 971b 073c 4d36 be3e 55e5 b33e fa40 4d3d
00000040: b1f9 4f3e 7be9 fc3d 2d5d fabd b944 d5bd
00000050: 6a07 ad3d f669 013e 348e 283f a2fc a63e
00000060: fc14 b63d 0632 573f 5dfd 193f 9712 9d3d
00000070: 12fd 5f3d 7bce 75bf 9af0 0d3f a274 ed3e
00000080: badc 0ebf e899 4b3d 487e 703e e39b 93bd
00000090: 58ae 8e3d b74b 403c a5d3 9ebe 4efc 4ebe
000000a0: 1435 ef3e ff45 333e 2bec 0abe d830 9d3d
000000b0: f214 823e 7eee c63d 02af 613d bc54 89be
000000c0: a4d1 4d3e 0d55 423e 49af 1dbe f905 df3e
000000d0: e7fc 3d3e 56cd 533e bec6 9abc 980c af3d
000000e0: 2dde 283d 2e47 40be 7dff 32be d097 8bbc
000000f0: 4ba2 c03c 2c6d e03c 8d36 993d 7579 6b3c
00000100: d809 77bd 4e48 92bd 7be5 0abc 952e edbc
00000110: 61bf 813d cdb8 833d 8559 79bd bc56 c9bd
00000120: afed 8d3d 3661 d2bd 556c 0c3e 3c4e 2dbd
00000130: 8b52 853d b030 a5bc 2c2a 99bd 27c7 423c
00000140: 615b 733d

conv_block.2.0.bias f4 [3]
-0.35214046 0.028951745 -0.6263265
00000000: c14b b4be 362c ed3c ef56 20bf

fc.weight f4 [10, 48]
-0.31025323 -0.26786727 -0.18314217 -0.18479589 -0.10978282 0.011962243 -0.08241899 -0.17875658
-0.17987208 0.02640748 -0.03830686 -0.09214414 -0.1352158 -0.062216222 -0.16044524 -0.27755043
-0.008944553 0.19142096 0.23815066 0.1780196 0.14465408 0.2601078 0.16732205 0.2947795
0.12007782 0.17006575 0.116935626 0.22158493 0.22307347 0.1684468 0.17414162 0.11212305
0.067251675 0.09303469 0.09669744 -0.059228383 0.042199433 0.107227445 -0.11840593 0.13285933
0.14216594 -0.02735314 -0.008263051 -0.08429297 -0.023815425 0.13757624 -0.019041186 -0.04778244
-0.15934436 -0.1841832 -0.2038795 -0.03198497 -0.026982827 -0.21832027 -0.06103969 -0.07716691
-0.18653 -0.18686865 -0.117225505 -0.12697433 -0.18046123 -0.186025 -0.15293491 -0.22961955
-0.34635538 -0.23341452 -0.25738877 -0.53391826 -0.3086114 -0.17881334 -0.31539762 -0.330422
-0.35452434 -0.40231287 -0.28896406 -0.44742897 -0.46270853 -0.32930547 -0.36829093 -0.4563603
0.09856583 0.06878004 0.08334646 -0.12880777 0.06694195 0.09504174 0.12741773 -0.13834468
0.084564954 0.14396366 -0.10931639 0.10283013 0.10625119 0.05629626 0.105101965 0.1414625
-0.04034426 -0.03424678 0.0031836098 -0.14603716 -0.1007543 0.0322846 0.087760456 0.058648486
0.07421028 -0.1326333 0.009584604 -0.110754035 -0.06795594 0.08152381 0.059013203 -0.05527979
0.047590014 0.15585755 0.07168357 0.053563274 0.18651232 0.14171787 0.16957617 0.16974233
0.11108814 0.11600585 0.08306951 0.2811246 0.059156727 0.06659247 0.11971125 0.10067898
-0.11735451 0.034225773 0.13570604 0.017449843 0.14179242 0.075872734 -0.023769703 -0.088431925
-0.0512361 0.15265535 0.14297926 -0.06847065 -0.12956184 0.085739456 -0.10452097 -0.1288459
-0.054580297 0.09199499 -0.03390886 0.19309515 0.06057865 -0.15071006 -0.032375865 0.02453904
0.08067908 0.053763736 0.026264917 0.09890935 -0.016436026 0.21118112 0.2967073 0.1691428
0.10077988 0.005160501 0.13683315 -0.057745613 0.07546927 0.21017651 0.054795496 0.124480516
-0.0020772868 0.14416663 -0.005095665 0.039961964 -0.0025245 0.084538095 0.27622384 0.17622878
0.028174404 0.027226642 -0.12327564 0.009804719 -0.06373531 -0.025657782 -0.0016496886 0.122491084
0.08256536 -0.06040208 -0.015937539 0.1284615 -0.11761967 0.13201855 0.13831836 -0.08082297
0.3556503 0.24974255 0.17174725 0.3592472 0.2802597 0.28864524 0.2327753 0.15393236
0.26436466 0.075139366 0.054961246 0.39801645 0.21283147 0.3172065 0.24727581 0.31266272
0.13970943 0.15199979 0.08187026 0.13441283 0.14795008 0.0877965 -0.043070965 0.13401161
0.101298764 0.078046754 0.0063350364 0.04663027 0.032364145 0.17047969 0.0168229 0.26935
0.073403075 0.09189499 0.010794187 -0.011931693 -0.13748068 0.033680968 -0.04426829 -0.010967522
-0.034651827 -0.027767416 -0.035795897 -0.10233142 -0.03396893 -0.09175867 0.037309542 0.035565525
0.01114628 0.053256605 0.005605357 0.0072790817 -0.066071175 0.009409472 0.00319081 0.14894597
0.00699869 0.07049709 -0.09832847 0.031702925 -0.06271373 0.08064895 -0.08783481 0.10627247
00000000: 83d9 9ebe e625 89be 9f89 3bbe 223b 3dbe
00000010: d1d5 e0bd 49fd 433c 4acb a8bd f70b 37be
00000020: 6330 38be 8054 d83c a7e7 1cbd 11b6 bcbd
00000030: 0376 0abe 70d6 7ebd c24b 24be 171b 8ebe
00000040: 2d8c 12bc db03 443e c4dd 733e c54a 363e
00000050: 3320 143e d92c 853e 7956 2b3e 57ed 963e
00000060: 5ceb f53d b725 2e3e f27b ef3d 29e7 623e
00000070: 5f6d 643e 517d 2c3e 2e52 323e c5a0 e53d
00000080: 3fbb 893d f988 be3d 4f09 c63d 7699 72bd
00000090: 50d9 2c3d 109a db3d cf7e f2bd 470c 083e
000000a0: f393 113e b113 e0bc bf61 07bc cba1 acbd
000000b0: 9118 c3bc c9e0 0c3e 43fc 9bbc 85b7 43bd
000000c0: 2b2b 23be 859a 3cbe cac5 50be ac02 03bd
000000d0: 170b ddbc 598f 5fbe c104 7abd af09 9ebd
000000e0: b801 3fbe 7f5a 3fbe ed13 f0bd 8f05 02be
000000f0: d4ca 38be 567d 3ebe f89a 1cbe 6321 6bbe
00000100: 7e55 b1be 3704 6fbe 76c8 83be deae 08bf
00000110: 5002 9ebe d81a 37be cc7b a1be 132d a9be
00000120: 3784 b5be f4fb cdbe 19f3 93be 6915 e5be
00000130: 22e8 ecbe ba9a a8be a190 bcbe 0fa8 e9be
00000140: e2dc c93d 8ddc 8c3d 8cb1 aa3d 2fe6 03be
00000150: dc18 893d 3ea5 c23d cb79 023e 3aaa 0dbe
00000160: 6430 ad3d 366b 133e 45e1 dfbd 9a98 d23d
00000170: 399a d93d e896 663d b33f d73d 8cdb 103e
00000180: 0640 25bd 5a46 0cbd 1ca4 503b c48a 15be
00000190: 4558 cebd db3c 043d c1bb b33d 6539 703d
000001a0: 8ffb 973d 06d1 07be be08 1d3c 03d3 e2bd
000001b0: 7c2c 8bbd f5f5 a63d d4b7 713d 106d 62bd
000001c0: bfed 423d 1f99 1f3e d6ce 923d 2a65 5b3d
000001d0: 16fd 3e3e 7d1e 113e 60a5 2d3e efd0 2d3e
000001e0: 2e82 e33d 7a94 ed3d 5920 aa3d 90ef 8f3e
000001f0: 534e 723d a261 883d 2c2b f53d c830 ce3d
00000200: 9057 f0bd 5330 0c3d 86f6 0a3e f9f2 8e3c
00000210: 0832 113e 2a63 9b3d aeb8 c2bc cc1b b5bd
00000220: f2dc 51bd af51 1c3e 2869 123e 573a 8cbd
00000230: dcab 04be 2b98 af3d 170f d6bd 2ef0 03be
00000240: 978f 5fbd df67 bc3d 04e4 0abd bcba 453e
00000250: 5221 783d bd53 1abe 8e9c 04bd 1906 c93c
00000260: 133b a53d 5d37 5c3d 8629 d73c fc90 ca3d
00000270: d8a4 86bc dd3f 583e 05ea 973e c533 2d3e
00000280: af65 ce3d 6c19 a93b fd1d 0c3e aa86 6cbd
00000290: a28f 9a3d 8338 573e 3e71 603d a4ef fe3d
000002a0: 1723 08bb 6ba0 133e 89f9 a6bb 28af 233d
000002b0: 1572 25bb 4f22 ad3d 366d 8d3e 5175 343e
000002c0: 02ce e63c 680a df3c f077 fcbd f9a3 203c
000002d0: a987 82bd 4530 d2bc 5d3a d8ba 9bdc fa3d
000002e0: 0718 a93d 2c68 77bd 718f 82bc 698b 033e
000002f0: 95e2 f0bd df2f 073e 54a3 0d3e 8386 a5bd
00000300: cc17 b63e 83bc 7f3e 83de 2f3e 40ef b73e
00000310: 337e 8f3e 4fc9 933e a65c 6e3e 72a0 1d3e
00000320: ce5a 873e abe2 993d 0b1f 613d d0c8 cb3e
00000330: 7ef0 593e e468 a23e df35 7d3e 5415 a03e
00000340: fd0f 0f3e d5a5 1b3e 98ab a73d 84a3 093e
00000350: 3a80 173e a7ce b33d 2e6b 30bd 573a 093e
00000360: ba75 cf3d fad6 9f3d 2396 cf3b 62ff 3e3d
00000370: 4490 043d 3a92 2e3e 2ed0 893c 3ee8 893e
00000380: 5a54 963d 7133 bc3d 1ada 303c 267d 43bc
00000390: bcc7 0cbe 0ef5 093d ab52 35bd 1fb1 33bc
000003a0: 13ef 0dbd 7e78 e3bc b89e 12bd 2393 d1bd
000003b0: 0123 0bbd f8eb bbbd e4d1 183d 28ad 113d
000003c0: e39e 363c 9923 5a3d 24ad b73b 5d85 ee3b
000003d0: 5350 87bd 302a 1a3c e91c 513b 4b85 183e
000003e0: 4455 e53b c760 903d 7060 c9bd edda 013d
000003f0: 0e70 80bd 472b a53d bde2 b3bd 61a5 d93d

fc.bias f4 [10]
0.168029 2.1245203 0.33218163 -0.5018813 -3.0138495 0.70080554 -0.6982463 -1.0123066
0.013288106 2.0617409
00000000: cb0f 2c3e 24f8 0740 b613 aa3e 4b7b 00bf
00000010: e9e2 40c0 fe67 333f 45c0 32bf 4393 81bf
00000020: 5bb6 593c 90f3 0340
